…
rsion. Use the PyTorch implementation torch.optim.AdamW instead, or set `no_deprecation_warning=True` to disable this warning\n","  warnings.warn(\n"]}]},{"cell_type":"code","source":["print(model)"],"metadata":{"colab":{"base_uri":"https://localhost:8080/"},"id":"vguKVY9LL3lO","executionInfo":{"status":"ok","timestamp":1731303803749,"user_tz":-540,"elapsed":5,"user":{"displayName":"장석우","userId":"01532251787025164167"}},"outputId":"f7cd0b16-8602-4e22-c45f-941d1dfd7a21"},"execution_count":null,"outputs":[{"output_type":"stream","name":"stdout","text":["T5ForConditionalGeneration(\n","  (shared): Embedding(32128, 512)\n","  (encoder): T5Stack(\n","    (embed_tokens): Embedding(32128, 512)\n","    (block): ModuleList(\n","      (0): T5Block(\n","        (layer): ModuleList(\n","          (0): T5LayerSelfAttention(\n","            (SelfAttention): T5Attention(\n","              (q): Linear(in_features=512, out_features=512, bias=False)\n","              (k): Linear(in_features=512, out_features=512, bias=False)\n","              (v): Linear(in_features=512, out_features=512, bias=False)\n","              (o): Linear(in_features=512, out_features=512, bias=False)\n","              (relative_attention_bias): Embedding(32, 8)\n","            )\n","            (layer_norm): T5LayerNorm()\n","            (dropout): Dropout(p=0.1, inplace=False)\n","          )\n","          (1): T5LayerFF(\n","            (DenseReluDense): T5DenseActDense(\n","              (wi): Linear(in_features=512, out_features=2048, bias=False)\n","              (wo): Linear(in_features=2048, out_features=512, bias=False)\n","              (dropout): Dropout(p=0.1, inplace=False)\n","              (act): ReLU()\n","            )\n","            (layer_norm): T5LayerNorm()\n","            (dropout): Dropout(p=0.1, inplace=False)\n","          )\n","        )\n","      )\n","      (1-5): 5 x T5Block(\n","        (layer): ModuleList(\n","          (0): T5LayerSelfAttention(\n","            (SelfAttention): T5Attention(\n","              (q): Linear(in_features=512, out_features=512, bias=False)\n","              (k): Linear(in_features=512, out_features=512, bias=False)\n","              (v): Linear(in_features=512, out_features=512, bias=False)\n","              (o): Linear(in_features=512, out_features=512, bias=False)\n","            )\n","            (layer_norm): T5LayerNorm()\n","            (dropout): Dropout(p=0.1, inplace=False)\n","          )\n","          (1): T5LayerFF(\n","            (DenseReluDense): T5DenseActDense(\n","              (wi): Linear(in_features=512, out_features=2048, bias=False)\n","              (wo): Linear(in_features=2048, out_features=512, bias=False)\n","              (dropout): Dropout(p=0.1, inplace=False)\n","              (act): ReLU()\n","            )\n","            (layer_norm): T5LayerNorm()\n","            (dropout): Dropout(p=0.1, inplace=False)\n","          )\n","        )\n","      )\n","    )\n","    (final_layer_norm): T5LayerNorm()\n","    (dropout): Dropout(p=0.1, inplace=False)\n","  )\n","  (decoder): T5Stack(\n","    (embed_tokens): Embedding(32128, 512)\n","    (block): ModuleList(\n","      (0): T5Block(\n","        (layer): ModuleList(\n","          (0): T5LayerSelfAttention(\n","            (SelfAttention): T5Attention(\n","              (q): Linear(in_features=512, out_features=512, bias=False)\n","              (k): Linear(in_features=512, out_features=512, bias=False)\n","              (v): Linear(in_features=512, out_features=512, bias=False)\n","              (o): Linear(in_features=512, out_features=512, bias=False)\n","              (relative_attention_bias): Embedding(32, 8)\n","            )\n","            (layer_norm): T5LayerNorm()\n","            (dropout): Dropout(p=0.1, inplace=False)\n","          )\n","          (1): T5LayerCrossAttention(\n","            (EncDecAttention): T5Attention(\n","              (q): Linear(in_features=512, out_features=512, bias=False)\n","              (k): Linear(in_features=512, out_features=512, bias=False)\n","              (v): Linear(in_features=512, out_features=512, bias=False)\n","              (o): Linear(in_features=512, out_features=512, bias=False)\n","            )\n","            (layer_norm): T5LayerNorm()\n","            (dropout): Dropout(p=0.1, inplace=False)\n","          )\n","          (2): T5LayerFF(\n","            (DenseReluDense): T5DenseActDense(\n","              (wi): Linear(in_features=512, out_features=2048, bias=False)\n","              (wo): Linear(in_features=2048, out_features=512, bias=False)\n","              (dropout): Dropout(p=0.1, inplace=False)\n","              (act): ReLU()\n","            )\n","            (layer_norm): T5LayerNorm()\n","            (dropout): Dropout(p=0.1, inplace=False)\n","          )\n","        )\n","      )\n","      (1-5): 5 x T5Block(\n","        (layer): ModuleList(\n","          (0): T5LayerSelfAttention(\n","            (SelfAttention): T5Attention(\n","              (q): Linear(in_features=512, out_features=512, bias=False)\n","              (k): Linear(in_features=512, out_features=512, bias=False)\n","              (v): Linear(in_features=512, out_features=512, bias=False)\n","              (o): Linear(in_features=512, out_features=512, bias=False)\n","            )\n","            (layer_norm): T5LayerNorm()\n","            (dropout): Dropout(p=0.1, inplace=False)\n","          )\n","          (1): T5LayerCrossAttention(\n","            (EncDecAttention): T5Attention(\n","              (q): Linear(in_features=512, out_features=512, bias=False)\n","              (k): Linear(in_features=512, out_features=512, bias=False)\n","              (v): Linear(in_features=512, out_features=512, bias=False)\n","              (o): Linear(in_features=512, out_features=512, bias=False)\n","            )\n","            (layer_norm): T5LayerNorm()\n","            (dropout): Dropout(p=0.1, inplace=False)\n","          )\n","          (2): T5LayerFF(\n","            (DenseReluDense): T5DenseActDense(\n","              (wi): Linear(in_features=512, out_features=2048, bias=False)\n","              (wo): Linear(in_features=2048, out_features=512, bias=False)\n","              (dropout): Dropout(p=0.1, inplace=False)\n","              (act): ReLU()\n","            )\n","            (layer_norm): T5LayerNorm()\n","            (dropout): Dropout(p=0.1, inplace=False)\n","          )\n","        )\n","      )\n","    )\n","    (final_layer_norm): T5LayerNorm()\n","    (dropout): Dropout(p=0.1, inplace=False)\n","  )\n","  (lm_head): Linear(in_features=512, out_features=32128, bias=False)\n",")\n"]}]},{"cell_type":"code","source":["import os\n","os.environ['CUDA_LAUNCH_BLOCKING'] = '1'"],"metadata":{"id":"SFHict2yPl68"},"execution_count":null,"outputs":[]},{"cell_type":"code","source":["for batch in train_loader:\n","    input_ids = batch[0].to(device)\n","    labels = batch[1].to(device)\n","\n","    print(f\"Input IDs: {input_ids}\
…
